model.pth (torch, 90408 bytes, 8 tensors)

conv1.0.weight f4 [10, 1, 5, 5]
00000000: 78cf 8b3d 49be 683e ab90 15bd b5ba 81bd
00000010: 3439 74be 1fdc 0f3e f427 5b3e 17b1 8b3d
00000020: 0685 0d3e 7bf7 e0bd 2bcd c03d c482 c13e
00000030: f1c2 703e 1a3a 64bd db7b a5be 0901 25be
00000040: 6f78 a73e 6ebd 843e 0854 153e 3d9d 8ebe
00000050: c84a 49be b3d5 553e c046 ac3e b13f c83e
00000060: 5e39 863e 84f8 073e f975 34be 83dd 013d
00000070: aca5 7a3e e6a2 d9bd f969 26be c283 a6bd
00000080: 712a 423e 20b4 58bc 9e04 0e3d 1d60 903d
00000090: 266d ef3c d2bb f13d 69c1 5f3e dc81 86be
000000a0: 097c 47be 31b1 3f3e 73dd a2bc 8b7f 9d3d
000000b0: ec63 46be ea60 f9bc fc80 683e 3689 20bd
000000c0: 15b9 ecbd 2922 36be 4a67 e13c 8208 1d3e
000000d0: cb63 573e 8e3f d13e f854 a73e 3068 8ebe
000000e0: 89f9 3dbe 4864 1abe 8439 cbbd 7993 a13d
000000f0: 8bf1 7fbe 78ee 9fbe 0a5c 9bbe d482 8cbe
00000100: 4d9d f43d 6d95 053e 408f 54be 3388 c03c
00000110: 7757 84be 64f1 3bbe 7569 833e 2a3e 233e
00000120: 2d21 81bc 5fa6 fd3d 4a2a 29be 85dc 98bd
00000130: 77a0 543d 6544 a03d 4f4f 35be f116 dc3c
00000140: 87d9 0f3e 8728 b9bd f0d9 053e cca5 a33d
00000150: d0e9 383d e6d9 c93d f1ee 4ebe f59c 4dbe
00000160: c672 e13d eeba bf3c 1ce3 19bd fad7 b2bc
00000170: 04d3 37bc 7697 3e3d 6182 f2bd 6275 473d
00000180: d0f8 e93d c0c6 e93d cb2b 3fbd 30bc bdbd
00000190: d648 25be 6f6c 4bbe e326 82bc feab 86bd
000001a0: f5b6 0e3e c9fc 373d 4b43 3bbe a6f3 b33d
000001b0: 5c88 a13e b565 663e 1d5c 9abe 8b3e 253e
000001c0: 9f4b d03e f580 003f ef1e 4c3e 798b bd3d
000001d0: 6d76 2e3e 44bf 013f 1bcc a23e 9c69 0dbe
000001e0: 4253 81bc 541a 20bd 9b6d c33e fad3 323e
000001f0: f6e3 2abe e3b5 1b3e 5b45 413e ad26 1d3e
00000200: 6d3c 0ebe 597d f1bd 3ca6 453d 666c 0cbd
00000210: 62fd 7b3e f7de 333d 72e6 a5be 7c81 4e3d
00000220: e1c4 703e fb3c 5abd 31b1 133d a2ef 92be
00000230: 3ada 673d c123 8e3e 25a5 623d 9fa1 81be
00000240: dfba 12be 0bbb f0bc 5665 2e3e 011b 213e
00000250: e252 cabd 8735 70be dffc 013e 0d86 4fbd
00000260: 9a3c 913d 5a43 59bd f9b8 723e e981 07be
00000270: 09da a93e becf da3e 4af7 bc3e 9313 db3d
00000280: 1a25 813d 6e90 c83d 6171 1ebe 6940 863d
00000290: 2c40 733d 0dc0 2fbd 9f9c 9cbd 0c1c 4abe
000002a0: 08dd 1dbe 2291 10be 34b3 bbbc bf49 90be
000002b0: ab96 7dbe 76ef 00be 14fe 47bd 48fb 84be
000002c0: e84b 6dbe bb5b 573d 1f2e 003e bf75 d33d
000002d0: 9b98 32be ff71 de3d 11ff af3e 3e98 203e
000002e0: 50ea 0bbe 5a6f 9e3e 71d2 7e3e b98a 753e
000002f0: 275d b23d 3884 a1bc 2aa2 373d 42c1 ad3c
00000300: 52d8 6abe 27bb 7cbe e1c7 0e3e cbb9 02be
00000310: 72e0 86bc face 9bbe a97c 18be b5d2 91bd
00000320: b797 653d e51c 4dbe 2e63 11be 44f6 b4bd
00000330: ab31 fabc 2742 f1bc ecfb abbe cb22 23be
00000340: 9bd4 b8be 90a1 4ebe f7fe 793e 366b b5bd
00000350: 0a89 93be 33f8 33be d81a 253e 43b6 9f3e
00000360: ad0a ca3e f60e 3f3e 4d5d 773e f87c 493d
00000370: 5cf4 ce3d e3c3 8d3e afea e03e d730 a03e
00000380: 25c0 473d 5650 803e 95c1 2b3e de0a a13b
00000390: b6a9 ea3d 1a7c 3c3d 45c7 583e 6684 703e
000003a0: 1d5e a03e f41b 8d3e 97ac bb3e 1e00 8a3d
000003b0: 4824 493e 2bfd 353c dd3d 7b3e 7884 bc3e
000003c0: d99d 3dbe 4587 87bc 10fe a7bd 7924 97be
000003d0: 1e22 4abe 9713 57bd 949c 5cbe fd60 26bd
000003e0: 3c5d 80be 6404 85be
0.06826681 0.22728838 -0.03651492 -0.0633444 -0.23849946 0.14048813 0.2140196 0.068208866
0.13820276 -0.10984703 0.09414133 0.3779508 0.23511864 -0.055719472 -0.32321057 -0.16113676
0.3270907 0.25925773 0.14582837 -0.27854338 -0.19657433 0.20882301 0.33647728 0.39111093
0.26215643 0.13278395 -0.17623128 0.03170539 0.24477261 -0.106267735 -0.16251363 -0.081305996
0.18961503 -0.013226539 0.034672372 0.07049582 0.02922685 0.11803402 0.21851124 -0.2627095
-0.1948091 0.18719937 -0.019880986 0.076903425 -0.19374055 -0.03044172 0.22705454 -0.039193355
-0.11558739 -0.17786469 0.027515072 0.15335277 0.21034162 0.408688 0.32682014 -0.27813864
-0.18552221 -0.15077317 -0.099230796 0.07889456 -0.24994485 -0.31236625 -0.30343658 -0.27443564
0.11944065 0.13045283 -0.2075777 0.023502445 -0.2584798 -0.18353802 0.25666395 0.15941682
-0.01576289 0.123852484 -0.16520038 -0.07463936 0.051910844 0.07825545 -0.17706035 0.026866408
0.14047824 -0.09040933 0.13071418 0.079906076 0.045144856 0.09856014 -0.20208336 -0.20079406
0.110082194 0.023404565 -0.037570104 -0.021831501 -0.011219744 0.046531163 -0.11841274 0.04869593
0.1142441 0.11414862 -0.046672624 -0.092644095 -0.16141066 -0.19865583 -0.015887683 -0.06575774
0.1393698 0.04491881 -0.18287389 0.087867066 0.31549346 0.22499736 -0.30148402 0.1613714
0.40682694 0.5019677 0.19933675 0.09255118 0.17037363 0.50682473 0.31796345 -0.13809818
-0.01578677 -0.03908761 0.3816956 0.17463675 -0.16688523 0.15206103 0.18874113 0.15346785
-0.13890238 -0.11791486 0.048254237 -0.034283064 0.24608377 0.043913808 -0.32402378 0.050416455
0.23512603 -0.05328081 0.036057655 -0.2869845 0.0566046 0.27761653 0.055333275 -0.2531862
-0.14329098 -0.029386064 0.17030844 0.15732957 -0.0987909 -0.23457919 0.12694119 -0.05066495
0.07091637 -0.053042747 0.23703374 -0.1323315 0.3317416 0.4273662 0.36907417 0.10697093
0.06305905 0.09793173 -0.15472938 0.06555254 0.05938737 -0.042907763 -0.076470606 -0.19737262
-0.15416348 -0.14117864 -0.0229126 -0.28181264 -0.24764507 -0.12591347 -0.048826292 -0.25972962
-0.23173487 0.052577715 0.12517594 0.10325193 -0.17441027 0.10861587 0.34374288 0.15683076
-0.13663602 0.3094433 0.24884965 0.239787 0.08709174 -0.019716367 0.044832386 0.021210317
-0.22934082 -0.24680768 0.13943435 -0.12766187 -0.016464446 -0.30431348 -0.14891304 -0.07120267
0.05605289 -0.20030554 -0.1419799 -0.08836034 -0.030541262 -0.02945049 -0.3359064 -0.15931241
-0.36099705 -0.20178819 0.24413668 -0.088583395 -0.2881549 -0.17575149 0.16123521 0.31193742
0.3946127 0.18658051 0.24156685 0.049191445 0.101052016 0.27688512 0.4392905 0.31287262
0.048767228 0.2506129 0.16773064 0.0049146255 0.11458151 0.04601679 0.21169765 0.23488006
0.31321803 0.2756039 0.36655113 0.067383036 0.19642746 0.011107723 0.24535318 0.36819816
-0.18517245 -0.016543994 -0.082027555 -0.29520014 -0.19739577 -0.052508917 -0.21544105 -0.04061984
-0.25071132 -0.25979912

conv1.0.bias f4 [10]
00000000: e257 db3d 3ac5 793d b3c8 143e 882b e0bc
00000010: 66ac 833e 4581 1e3e 8deb 5e3d 89e0 38bb
00000020: 0e4d 403e c382 903e
0.10710122 0.060979106 0.14529686 -0.027364507 0.25717467 0.15479 0.054423857 -0.0028210005
0.18779394 0.28224763

conv2.0.weight f4 [20, 10, 5, 5]
00000000: 7d0a 133d 8d26 c73d d86a 763d 4a3a 6a3d
00000010: 3117 293c cf43 2b3d 1007 a93d 3b29 173d
00000020: 6fff e73c ed36 a13d d95f 97bc 554e aa3d
00000030: 947f ca3a 0c7b 693c 2f53 943d 51eb c8bc
00000040: b70c 42bd eab7 2abd f26f c1bd 4091 53bd
00000050: 4eea 8abd 3280 02be 89b7 c5bd 91d2 92bd
00000060: 6bb2 f5bd d8fd c0bc dddb abbb 496c dcbc
00000070: 195d 5fbd be6e a8bc 2aaf dd3b c998 c33c
00000080: c4e8 f63c 5ae4 fd3c 95b1 c8bc 0da5 4f3d
00000090: 0a72 4dbd 4386 3fbd 1770 f7bc 8911 a3bd
000000a0: d78a 74bd 6f2a 3ebd 0a0b 7e3d e766 bebc
000000b0: 87c2 4f3b f453 a6bc 58bb f53a 4003 8bbd
000000c0: 6226 123d e913 103d 368a 89bb f5a0 f43a
000000d0: 0f4d 80bc cea4 d13b edd1 d0bc b282 9c3b
000000e0: 92aa 54bd 617a 383c 01fa 19bd d6ec 2b3d
000000f0: 6169 843a 3d9a 333c 2b26 3a3d 561c 2fb9
00000100: d7a1 2e3d dfeb cf3c aa6d 923b fd7e 273d
00000110: 2ba0 9b3c 026e 323d a8a1 ab3d 7fb7 843c
00000120: d489 dc3c 5246 06bd f0c4 2b3d 1f8f 433d
00000130: aba6 72bd 1e9d 233d 9649 4f3d e071 2fbd
00000140: 82d1 44bd 4427 cabb 4c0b eebc f2e6 543d
00000150: 7731 babc 61e8 98bc a1b1 ddbc eb52 163b
00000160: 0a60 053d 8925 0b3d 37ad 993c bc69 bbbc
00000170: 318c 4cbd 7b5c 583c dd09 86bd 693c 43bd
00000180: d949 023d 69cd 9abc 7a4f 4bbc 10c8 183d
00000190: 1f0e a23d 15c9 e43d a2f5 f1bc 6271 b33d
000001a0: 724f af3b 727e 803c bbb1 463d 9e7c a13c
000001b0: 41ff 013d 900b 913c 65fc 853d e879 763d
000001c0: 0cef 60bd 6bd2 2e3d 9bc4 ea3d 9aa3 4abd
000001d0: e6de a8bd e74d 403c fe13 e83c 6d55 38bd
000001e0: a1ca 7dbd 8214 25be e02a 29be 173e c1bd
000001f0: 98b6 81bd 0698 403d ece8 1ebd 60d6 f13b
00000200: 215b c5bc 1153 06bd 3c27 b2bc 4a2d 313c
00000210: c7e3 af3c 9002 fcbc f9d2 3dbc 40ea 45bd
00000220: 01c4 073d e65e 2f3d 444a db3c 551e 8ebd
00000230: 234d 14bd d115 babc 36cb 193d df77 5ebd
00000240: 8926 06bd 9409 0e3d 0b23 5dbc 53a5 13bc
00000250: 035e 01be 006d cabd 4053 3cbd dcfe 7dbd
00000260: 9bed 2ebd 6562 edbc fd5a 243d 1f0f b2bd
00000270: 6875 4bbc a800 71ba f51a 7fbd 663a 443c
00000280: beba 21bd 7eb7 363b ac9f 85bd a89c dd3c
00000290: d6dc 88bc 82e1 60bb 5fca 183b 4dbe b43c
000002a0: 4fc3 ab3b c038 de3d 0b72 2fba 9002 9c3d
000002b0: e0a3 693d ef5c 083c 9f20 3dbc 0837 b73c
000002c0: 6f7c 91bc 3a6d 9439 0476 443d c02d 7fbc
000002d0: 29f2 40bc 0af0 abbd e514 333d ca57 353d
000002e0: 4c21 2ebd 21a4 4ebd 5c4e e5bc fbaa a73c
000002f0: 8062 5f3c 0464 863d f990 cdbc 5c6a 033d
00000300: ea19 2b3d b3c4 4dbc 6f3e 0e3c 4220 2d3b
00000310: 37f2 83bd 742a 07bd e8da 333d efa4 723d
00000320: 2008 9ebd bcb5 a7bd 5550 16bc 494d 8abc
00000330: 3fbb c93d cb19 e7bd 7479 ffbc 4429 88bd
00000340: 149d 8eba a0d8 4e3d fb72 88bd e1c8 e0bd
00000350: cb0f 4fbd a972 1fbb 73f7 863d 3e05 5fbd
00000360: b8e3 b73c 1cdc 15bd 9728 9e3c de25 a9bd
00000370: aa07 e53c 0c92 9abb bed6 a2bc 36bd 93bc
00000380: 194d 483d 978c 983d 7340 3b3c dddb 0fbc
00000390: 0571 1bbd 6a95 a1bd 4f47 65bd 8d9d 6e3d
000003a0: 39ff 713d e18d 303c edd8 31bd 989a 943d
000003b0: a2fd b83b 3fed 8dbd 73f5 42bd c3ee 25bc
000003c0: 1f6a 7a3d 4880 b83d 968d 863c efa7 043e
000003d0: cf07 b83d 2ac7 39bd e4dd 013b 8f72 1d3d
000003e0: de79 833c c420 16bd ec35 053c 1c8a 7c3d
000003f0: b6dc 623d 0feb d43d 294c 783d 3938 cbbc
0.035898674 0.0972415 0.060160488 0.057184495 0.010320471 0.041812714 0.082533 0.036904555
0.028320042 0.078718044 -0.01847832 0.08315722 0.0015449398 0.014250528 0.072424285 -0.02452627
-0.047375407 -0.0416793 -0.0944518 -0.051652193 -0.06782971 -0.12744215 -0.09654147 -0.071690686
-0.11996921 -0.023558542 -0.0052447156 -0.026907103 -0.054532144 -0.020560618 0.006765266 0.023876565
0.030140288 0.030992676 -0.02449874 0.050694514 -0.050157584 -0.0467589 -0.030204816 -0.07962329
-0.05970272 -0.046427187 0.062022246 -0.023242427 0.003170164 -0.020303704 0.0018747849 -0.06787729
0.035681136 0.035175238 -0.004197384 0.0018663692 -0.015661744 0.00639782 -0.025490725 0.0047763223
-0.05192048 0.011259646 -0.037591938 0.04197391 0.0010102206 0.010962066 0.045446556 -0.00016699856
0.04263481 0.025381027 0.0044686394 0.04089259 0.018997272 0.043561943 0.08380443 0.016200779
0.02692119 -0.032781906 0.04193586 0.047743913 -0.05924098 0.03994476 0.050607286 -0.04283321
-0.048051365 -0.0061692316 -0.029058121 0.05197806 -0.022728665 -0.018665494 -0.02706224 0.0022937607
0.032562293 0.033971343 0.018759353 -0.022877567 -0.049938384 0.013205643 -0.0654485 -0.047665033
0.031808708 -0.018896775 -0.012409085 0.03730017 0.0791285 0.11171166 -0.029536072 0.087618604
0.005350047 0.015685294 0.04850934 0.019712742 0.03173757 0.017705709 0.06542281 0.060174853
-0.054915473 0.04268114 0.11463281 -0.04947243 -0.082456395 0.011737323 0.028329846 -0.045003343
-0.06196082 -0.16121104 -0.16520262 -0.09435671 -0.06333655 0.04701998 -0.03879635 0.007380292
-0.024091305 -0.032794062 -0.021747224 0.01081402 0.021470917 -0.03076294 -0.011585944 -0.0483191
0.03314591 0.04281511 0.026768811 -0.06939379 -0.036206376 -0.022715481 0.037547313 -0.054313537
-0.032751594 0.034677103 -0.013497124 -0.009011584 -0.12633519 -0.09884071 -0.04597783 -0.06201063
-0.042707067 -0.028977582 0.040125836 -0.0869429 -0.012418129 -0.0009193518 -0.062281568 0.011976814
-0.03948473 0.0027880366 -0.065245956 0.027052239 -0.016706865 -0.00343141 0.0023313982 0.022063399
0.0052417885 0.10850668 -0.0006692714 0.07617676 0.05704105 0.008322938 -0.011543422 0.022365108
-0.01775953 0.0002831014 0.04796411 -0.0155748725 -0.0117764855 -0.08395393 0.0437211 0.044273175
-0.042512223 -0.050449494 -0.027991466 0.020467272 0.013634324 0.06562045 -0.025093542 0.032083854
0.04177276 -0.012559104 0.0086818775 0.0026416932 -0.06442683 -0.03299947 0.043909937 0.059239324
-0.077163935 -0.0818896 -0.009174426 -0.016882556 0.098501675 -0.112842165 -0.031185843 -0.06648496
-0.0010880553 0.05049956 -0.06662556 -0.109758146 -0.05055217 -0.0024329817 0.06590166 -0.05444836
0.022447452 -0.036586866 0.019306464 -0.08259176 0.027957756 -0.004717117 -0.019877788 -0.018034559
0.04890165 0.074486904 0.01142894 -0.008780447 -0.03794958 -0.078898266 -0.05597621 0.05825572
0.05908129 0.010776014 -0.043419767 0.07256049 0.0056454698 -0.06930017 -0.04759736 -0.010127726
0.06113636 0.09008843 0.016424935 0.12954687 0.08985864 -0.045355953 0.0019816095 0.03843933
0.016049322 -0.03665234 0.008130532 0.06165515 0.055386268 0.10396396 0.060619507 -0.024807082

conv2.0.bias f4 [20]
00000000: a24e 713d 75a9 80bd 9b8d 903d 9c1c 1a3d
00000010: 6781 a23c ea47 4dbd 5d04 f13c 3dc2 4cbc
00000020: fdc6 c5bb d203 20bd dc6f 18bc e56f e3bc
00000030: 2e57 783d bf3c 0bbd 3cc1 0bbd 62bc 063d
00000040: 5547 913b 40a8 04bc bb5d 4dbd db22 86bc
0.05891288 -0.06282321 0.07058259 0.03762494 0.019837094 -0.05011741 0.029421026 -0.012497482
-0.006035684 -0.039066143 -0.009304013 -0.027763316 0.060630016 -0.03399348 -0.03411983 0.0328945
0.0044335523 -0.008096755 -0.050138216 -0.016374042

fc.0.weight f4 [50, 320]
00000000: 15b9 e93c 0597 00bd 60a7 71bc 8c33 8237
00000010: 856f 5fbd a0c0 1e3c e18e 1b3d ea6a c4bc
00000020: 90c9 ce3c 8410 10bd a65e b6bc 5f12 283d
00000030: f18e c03c 3a58 5d3c 44e3 093c 3247 c13a
00000040: 67bc f63d 465d da3d 842f 50bd d7fc b0bd
00000050: d9d6 213d 36e0 a6bb c09b 27bc 4f26 06bd
00000060: 08c2 123d be02 cd3c a88b c5bc 2d19 923d
00000070: cdaa d4bc 73db 833c 3d2f d4bc e677 8d3c
00000080: 3b88 873c 9cb3 a33a 760e cb3c 12c7 0cbd
00000090: cb20 f33c 789a 853c 5bab e43c 7bed 2f3d
000000a0: 943c 2d3d 7ee5 7a3d 89e3 ebbc eafa 873c
000000b0: e3ef 07bd 292b 0e3d eb50 37bd 487d c7bc
000000c0: ebdb b0bd e489 c1bd 4ab1 02bd 5535 923c
000000d0: 4a9a b5bd 6b07 20bd 5b7d 893c 1e22 8f3d
000000e0: 7c44 94bc 7b1c a73d 6186 afbb 8d7a cd3c
000000f0: bb6c 34bd 9605 073d 23a3 a5bc 215c 713d
00000100: bc3d 173d 8d3f cf3c e803 de3c 4810 bcbd
00000110: d924 c23c c294 a93c 6791 0b3d 9646 24bc
00000120: 42e9 503d 26f6 bf3c 4edd 88bc 52c5 3abb
00000130: a14c 2e3c b2f4 46bc 1f01 1dbc 6b14 8f3d
00000140: 9383 2d3d 0e46 0abd 5686 44bd 807e 253d
00000150: 05c4 14bc 173a c9bd 0a29 b63b 3d47 fe3c
00000160: 57ec ccbc f74a cebc d5cb 223d c1fa 083c
00000170: 5358 013d 3bf5 413d 20ab 783c 1dd0 8dbd
00000180: 2e71 fa3c a9b4 c53c c6c5 5f3d 1274 19bc
00000190: be65 66bd 109b 54bc f4ad 9e3d 006a a63d
000001a0: 0737 6ebc 07e2 20bd 4f60 35bd b580 6abb
000001b0: fd11 9e3d 82e8 cf3c bc51 503d d84b f63c
000001c0: 4870 95bd 422a b5bc a252 9bbd 6b59 10bb
000001d0: 218b db3c 1afa 5a3d d42f 97bd 915f 913d
000001e0: 1005 2f3d fcea 7c3c f497 48bd 849b f3bc
000001f0: 61d0 fa3c 313e b5bd 0a73 b73c e51a 6b3d
00000200: 60be d6bc b39a 013d fae7 16bd fa7e 4fbd
00000210: 991c 24bb 8fb7 49bd f418 b3bc b746 28bd
00000220: fbef 793d 0305 313c ffc6 933c c613 f83c
00000230: e4cb 643d cdd6 8ebd a4b7 c83c 1cfa 2a3c
00000240: f6ea 983c 46f4 0f3d be62 e83b 3899 603d
00000250: 35b5 8ebc a456 52bd 859b 27bd 6f61 6e3c
00000260: fad4 77bd fac3 033c 28fa 89bc 905e 483c
00000270: 5e62 3abd 3c86 82bd 3f3a 713d 91e7 423d
00000280: cbcb 4dbd 4af0 0cbd 375c 96bc 5d0e 143d
00000290: bd60 1c3c e180 9539 2fe4 24bd 70a0 6a3d
000002a0: 0619 2c3d f0c5 74bd 2057 09bc 7769 b93c
000002b0: 52c9 e73b 932f 0dbd b3e3 0abd cbb0 febb
000002c0: a87d a83c 419c 9bbd e193 90bc a861 70bd
000002d0: 9369 a53d e484 b33c 6dcf c7bc d757 bebd
000002e0: 1409 773d 2c51 eebc 0445 e83c 71ce 613c
000002f0: afb7 8b3b b3a5 31bd 0eed 673c ae75 873d
00000300: c477 e23d 3168 adbc 0835 083d 4aac 75bd
00000310: 12fd 58bc 8030 463d 2974 00bd f98e 72bd
00000320: 8dc9 2cbb 1428 143d f330 8bbc f562 b7bb
00000330: d060 7d3d 5cf2 2cbd ce9a ed3c a177 ebbc
00000340: 59bb 90bd e482 ec3c ba99 a43d 95f1 023d
00000350: 273b 4fbd e7bb 73bc eb66 21bd f705 7e3d
00000360: 4c26 c5bb 76bc 24bd 60d9 c73b cc40 803c
00000370: 636e 673d 825e 21bd d276 323c 6764 ee3a
00000380: 7f26 dc3c 6397 9f3c eaa7 17bc 1e7e 4a3c
00000390: 9ece c7bc 080b 4dbb a5aa b33c 8782 94bc
000003a0: 7286 583d 0c6b 7bbc a4fe 47bc 1c62 083d
000003b0: 5339 2c3c 83d1 3d3d 1384 0e3c 8cd6 3bbd
000003c0: bb73 393c fc95 553c e4d4 803d 4b01 81bd
000003d0: df1e 36bb 5717 583d 7e2c 6b3a bf6b 9e3d
000003e0: ce9f 4c3d 7384 a4bc 60f4 5ebd 5eb2 543d
000003f0: 2456 2e3c f045 56bc cee8 80bd 2a26 7dbd
0.028530637 -0.031394023 -0.014749378 1.5521211e-05 -0.054549713 0.00968948 0.037978057 -0.023976762
0.025242597 -0.035172 -0.022261929 0.041033145 0.02350566 0.013509804 0.008416001 0.0014745949
0.12047654 0.10662322 -0.050826564 -0.086419754 0.039511535 -0.005092646 -0.010230005 -0.032751378
0.035829574 0.025025722 -0.024114445 0.07133708 -0.02596035 0.016095852 -0.025901431 0.017269086
0.016544452 0.0012489441 0.024787169 -0.034369536 0.029678723 0.016309008 0.02791374 0.04295109
0.0422941 0.061254017 -0.02879502 0.016599137 -0.03318776 0.03470913 -0.044754904 -0.024351731
-0.08635696 -0.09450129 -0.031907357 0.017847696 -0.08867319 -0.039069574 0.016783407 0.06988929
-0.018099062 0.08159729 -0.0053565954 0.02508285 -0.044049006 0.03296431 -0.020219391 0.05892575
0.03692411 0.025298858 0.027101472 -0.09182793 0.023699211 0.020700816 0.034074213 -0.010026595
0.051003702 0.023432802 -0.016707089 -0.002849896 0.010638387 -0.012143301 -0.009582787 0.06986316
0.042361807 -0.033758216 -0.047979675 0.040403843 -0.009079938 -0.09825533 0.0055590915 0.031039828
-0.02501504 -0.02518223 0.03974517 0.008360566 0.031578373 0.04735301 0.015177518 -0.0692446
0.030571546 0.024133997 0.05463197 -0.009366052 -0.056249373 -0.012976423 0.07748023 0.08125687
-0.014539487 -0.039278056 -0.0442813 -0.0035782282 0.07718275 0.025379423 0.050859198 0.030065462
-0.072968066 -0.022114877 -0.0758412 -0.0022025954 0.02679974 0.05346117 -0.07382169 0.07098306
0.042729437 0.015436884 -0.04897304 -0.029737242 0.03061694 -0.08849753 0.022393722 0.057398695
-0.026213825 0.031641673 -0.036842324 -0.050658204 -0.002504146 -0.04924732 -0.021862485 -0.041083064
0.06101988 0.010804418 0.018039225 0.030282866 0.055858508 -0.06974564 0.02450163 0.010435607
0.018666726 0.035145067 0.007091849 0.05483362 -0.01742039 -0.05135216 -0.0409198 0.014549597
-0.060505845 0.00804233 -0.016842917 0.012229577 -0.045503967 -0.063732594 0.05889344 0.04758412
-0.05024318 -0.034408845 -0.018354518 0.03614651 0.009544549 0.00028515517 -0.040256675 0.05728191
0.04201605 -0.05975908 -0.008382589 0.022633297 0.00707356 -0.0344692 -0.033908557 -0.00777254
0.02056773 -0.075981624 -0.01764864 -0.058686882 0.08076777 0.021913953 -0.0243909 -0.09294098
0.060311392 -0.02909144 0.028353222 0.01378213 0.00426384 -0.043370914 0.014155639 0.066142425
0.11058 -0.021167846 0.0332537 -0.05997876 -0.01324393 0.048386097 -0.03136078 -0.05921838
-0.002636525 0.036171034 -0.016991114 -0.0055965134 0.061859906 -0.04222332 0.02900448 -0.028743567
-0.07066984 0.028871007 0.080371335 0.03196867 -0.05059352 -0.014876342 -0.03940479 0.062017407
-0.0060165282 -0.040218793 0.006098911 0.015655898 0.056501757 -0.03939677 0.010892587 0.0018187881
0.026873825 0.019481367 -0.009256342 0.01235917 -0.024390515 -0.0031287093 0.021931956 -0.018128647
0.052862592 -0.015345346 -0.012206707 0.03329669 0.010511714 0.046342384 0.008698481 -0.045858905
0.011319096 0.013036247 0.06290606 -0.06299075 -0.0027789397 0.052756634 0.00089711684 0.07735395
0.04995709 -0.020082688 -0.054432273 0.051927917 0.010640655 -0.013078198 -0.06294404 -0.061803974

fc.0.bias f4 [50]
00000000: 3194 8a3c 3082 193d 5cb3 d9bc b4ef ff3c
00000010: fef8 d9bc 9664 f0bc e1dc 35bd da27 27bd
00000020: 7b2c 483d dcfc 253c 7ab3 ce3c a109 0cbd
00000030: b434 f53c f46b 06bd e868 a2bc a65e 103c
00000040: 31dc dabc 0d29 ec3c 946c 9f3c 1c17 1fbc
00000050: 768d 473c 7ffe d73c 075e cb3c 7cac 2c3d
00000060: cd4c 6dbd 2041 d8bc efd6 4f3c 3ffa 2fbd
00000070: 2df8 723c b4ab 3ebd da11 3dbd e900 3e3d
00000080: a8dc 0a3d 99ec 0b3c 81d0 543d e31b e53c
00000090: 1f27 0abd 7dc8 83bd ea85 36bd 517e 5ebc
000000a0: f29c 893a 7aa1 093d 9808 b0bc dfb1 a83c
000000b0: ad7e 1dbd a2fb 44bd 41ba 3cbd a63b 91bc
000000c0: fdf7 8d3c de19 39bd
0.016916366 0.037477672 -0.026574783 0.031242229 -0.026607987 -0.029344838 -0.0444001 -0.04080949
0.048870545 0.010131087 0.025232065 -0.03418887 0.029932357 -0.032817796 -0.019825414 0.008811628
-0.026716324 0.028828168 0.019460954 -0.0097101 0.012179723 0.02636647 0.02482511 0.04215668
-0.05793457 -0.026398242 0.0126855215 -0.042963263 0.0148296775 -0.046550468 -0.046159603 0.046387587
0.03390184 0.008540296 0.051956657 0.027967399 -0.033728715 -0.064347245 -0.044561304 -0.013579921
0.0010499044 0.03360126 -0.021488473 0.020592628 -0.038450886 -0.04809154 -0.046076063 -0.017728638
0.017330164 -0.045190684

fc.1.weight f4 [10, 50]
00000000: 9f1a 113e 8a71 023e 73c3 5bbd 5b17 9a3d
00000010: 2261 383e e269 193e 3f87 1abe d6fe 11be
00000020: c433 c1bd b95e 433e baa6 45bc d50e 093e
00000030: 3067 3abd 3d7a 233e b180 043d 11ca f23d
00000040: b2a0 c3bd b0de 69be ed6e 0ebe c000 393e
00000050: aafe 4dbe 9e66 423e faf8 35be 4be4 81be
00000060: 9659 cdbd 2e3b 1b3e 5218 e1bd debc 3bbe
00000070: 12b1 f1bd 1329 d93d 0963 e5bd 4af7 5b3d
00000080: 3522 25be 4d95 4bbc 5be1 49be 9b51 1f3e
00000090: 0597 1ebe 3cd1 c13b eb91 f73d d467 63be
000000a0: 88b6 f3bd 2286 2c3e 48b2 9abd c140 64bc
000000b0: 6c21 d63d 4f95 15bd 78df 613e e5c0 a33c
000000c0: 68f4 2abe e55e b23d e0b1 f03d 73bd 173e
000000d0: 2320 2cbe 574d 37be 9103 1ebe 547b e1bd
000000e0: 1f8f 32be f25c 55bd 80bb 5a3d 1ccf 62bc
000000f0: 2512 9abc aaa9 c43c d88f ecbd d967 cbbd
00000100: 0111 54bd 9ea8 48be 3c15 6f3e ed04 253d
00000110: e0b8 84ba 9118 8bbe d6e3 07be 5e5f 5cbd
00000120: bf22 61bd 5e55 28bd cc54 5fbe 2c89 8bbd
00000130: 453b 093e 2e76 cfbd e98a d9bd 15a8 19be
00000140: 9a7c 9ebe 9e97 6fbe 7bc9 533e 995e 973d
00000150: 3a07 173e c14f bf3c 42e5 c9bc 8c1b dfbd
00000160: b665 e1bc 9ca4 e73d 8995 753e e3a9 3f3e
00000170: 8188 cbbc b18c f03d b96f 573e 57dd 87bd
00000180: 4455 0dbe a701 a23d 827d 023e 38c9 7cbe
00000190: c392 913d 206f a8bd 8c9a 56be 6beb 3fbd
000001a0: ed47 5dbd e80b e53c 95d5 d63d a216 903c
000001b0: b8d8 113e ae54 283d d46e 32be 1db3 573e
000001c0: 9717 9f3c 6ca0 c2bd 40f0 533e 2d95 443e
000001d0: 60a6 e3bd 0e62 a03d 79cb 70bd 40bd 33bd
000001e0: e32b f2bd 2e45 94be 4e52 0fbe 481e 28be
000001f0: 0da8 0a3e a87a 283e 4047 3e3d 8261 de3c
00000200: c3fc 5cbd 0fe2 7abd d898 3bbe 824e 333e
00000210: f1ac 37be 4eec 093e 866b 783c a05c 043e
00000220: 6a96 3abe 25be 80be b287 023e 7589 5dbe
00000230: ebf0 303e b65d d6bd 7d0e 383e 7c25 6d3e
00000240: 533c cfbd 361c 4c3e 55c6 443e 7024 84bd
00000250: 6aab 92bd 80d6 7bbe 5b23 2f3e 25c8 453e
00000260: 5bb1 493e 8aaf 6c3e 20f8 8c3d e7c9 35be
00000270: 1c01 11bd 6d32 f63d ac18 5a3d 1a0a 743d
00000280: 9eca f8bd 5b46 5fbd 7721 1c3e c1dc 5dbe
00000290: 11fc 95be 1ce2 e8bd ee9a 343d f894 ca3d
000002a0: 3bb7 af3d bf0d 3a3e a295 07bb 5c98 45bc
000002b0: 71cc 2fbe 7d38 2cbc e479 7abc e569 d23d
000002c0: c8dc 13be d74f 503e 18c0 5a3c c5d9 cebd
000002d0: 4501 8a3d 7839 e23d cdef 363e a3b5 48be
000002e0: 8fb2 0a3e 3012 dc3d 5fc1 3dbe c259 003e
000002f0: a572 70be 55f7 2bbe 4f2d b23d f4cb 78be
00000300: 5d8f 063e 166c 89bc b7b4 ac3d 2d2e f63d
00000310: d1c2 43be 81c1 67be 2280 08be cbda edbd
00000320: c4b5 003e 7a8c adbd bf2a 293e 3521 293e
00000330: 7800 943d b754 14bd 97d2 593e 3609 38bd
00000340: dfe5 7cbe d116 3a3e 89ab 453e 137c 563e
00000350: 9936 8abc 8e89 2c3e 5f3c 7d3c bd8f 1abe
00000360: 59a5 843c 06b0 f73d 1e02 6fbe 4207 bfbd
00000370: 8a7d 513e 3ad2 acbd e5e9 0f3e 976a 083d
00000380: 0dbc d03d 1d6e 17be 245e 3b3e 14c6 4abe
00000390: da71 023e 7450 0dbe 3567 a4bb 9e8a 70be
000003a0: 3eb1 bf3d fcd0 003e dedc 37bc 5bba 82bd
000003b0: 3a77 723e d7e9 013e f24a 993d 4dde 2d3e
000003c0: e149 30be 72b3 32bd b25d 24be 91ab 283e
000003d0: cb8f 133e ac93 953d 6f95 6c3e f33a 873d
000003e0: 9511 743e 1f7d e53d 3750 55bd b8d2 303e
000003f0: 411d 59bd 159d 70bc 2f95 2a3d 34bc 4e3d
0.14170311 0.12738624 -0.05365319 0.07523986 0.18005803 0.14981797 -0.15090655 -0.14257368
-0.09433702 0.19079103 -0.0120636765 0.13384564 -0.045508564 0.15964599 0.032349292 0.11854947
-0.095521346 -0.22838855 -0.13909502 0.18066692 -0.20116678 0.18984458 -0.17770758 -0.25369486
-0.10026853 0.15159294 -0.10990967 -0.18333766 -0.118013516 0.106035374 -0.1120053 0.05370263
-0.1612633 -0.012425733 -0.19714873 0.15558474 -0.15487297 0.0059148353 0.120883785 -0.22207576
-0.119000494 0.16848043 -0.07553536 -0.013931454 0.104555935 -0.036519345 0.22057903 0.01998944
-0.16694796 0.08709506 0.11752677 0.14818363 -0.16809134 -0.17900597 -0.15431048 -0.11009851
-0.17437409 -0.052090593 0.05340147 -0.013843324 -0.01880748 0.024006683 -0.115508735 -0.09931917
-0.05177403 -0.19595572 0.23347944 0.0402879 -0.0010125898 -0.2716718 -0.13270506 -0.053801887
-0.054964777 -0.041097037 -0.21809691 -0.06813273 0.13401516 -0.10129963 -0.10622198 -0.15005524
-0.30954438 -0.23397681 0.20682327 0.0739109 0.1474885 0.02335346 -0.024645451 -0.10893926
-0.02751432 0.113106936 0.23982824 0.1871715 -0.024845364 0.11745585 0.21038713 -0.06634014
-0.13802058 0.079104714 0.1274319 -0.24686134 0.07108071 -0.082243204 -0.20957392 -0.04685537
-0.054023672 0.027959779 0.10489956 0.017588917 0.14242828 0.04109638 -0.1742509 0.2106442
0.019420428 -0.09503254 0.20697117 0.19197531 -0.11115718 0.078312024 -0.058787797 -0.043881655
-0.11824777 -0.2895903 -0.1399624 -0.16417801 0.13540669 0.1645304 0.046454668 0.027146105
-0.05395199 -0.061250743 -0.18320024 0.17510417 -0.17937066 0.1346905 0.015162354 0.12925959
-0.18221441 -0.2514507 0.12747076 -0.21634467 0.17279403 -0.10467093 0.17974277 0.2315883
-0.10118928 0.19932637 0.19216283 -0.064522624 -0.07161601 -0.24593544 0.17103331 0.1931463
0.19696562 0.23113838 0.068832636 -0.17752801 -0.03540145 0.12021337 0.053246185 0.059579946
-0.12148021 -0.054510456 0.15247141 -0.21666242 -0.29293874 -0.11371252 0.044093065 0.09891695
0.0857987 0.18169306 -0.0020688553 -0.012060251 -0.17167832 -0.010511515 -0.01528785 0.10274104
-0.1443969 0.20342956 0.013351463 -0.1010013 0.067385234 0.110461175 0.17864914 -0.19600539
0.13544677 0.107456565 -0.18530796 0.1253424 -0.23481233 -0.16793568 0.08700048 -0.24296552
0.13140626 -0.016775172 0.08432906 0.12020526 -0.19117285 -0.2263241 -0.13330129 -0.11613997
0.12569338 -0.084740594 0.16520213 0.16516574 0.07226652 -0.036213603 0.2127174 -0.04493066
-0.24697064 0.18172766 0.19303717 0.20945768 -0.016871737 0.16849348 0.015456288 -0.15093894
0.016192125 0.12094121 -0.23340651 -0.09327556 0.20458046 -0.08438535 0.14054067 0.033304777
0.10192118 -0.14788099 0.1829763 -0.19802123 0.12738743 -0.13800222 -0.005017186 -0.23490378
0.09359978 0.12579721 -0.011222092 -0.06383201 0.23678294 0.12686859 0.07484998 0.16979332
-0.17215683 -0.043628164 -0.16051367 0.16471697 0.14410321 0.07303557 0.2310388 0.066030405
0.23834832 0.112055056 -0.052078452 0.17267883 -0.053006414 -0.014685889 0.04164618 0.050472453

fc.1.bias f4 [10]
00000000: 04b9 e43d 2176 cd3a d979 aabd 7ca0 b83d
00000010: 2015 5b3d 4541 a33c 604b cabd 4ec1 3e3d
00000020: d35f 373d 9f08 d93d
0.111681014 0.0015675464 -0.08324022 0.09014985 0.053486943 0.019928584 -0.09877658 0.04657107
0.04476912 0.105973475
